…
Total No of index2token: 4365

Loading  Training Input index2token
Total No of index2token: 4365

Loading  Training output token2index
Total No of index2token: 2

Loading  Training output index2token
Total No of index2token: 2
Dim of Training encoder shape (1998, 26)
Dim of Training decoder shape (1998, 1, 2)
Dim of Testing encoder shape (500, 26)
Dim of Testing decoder shape (500, 1, 2)
_________________________________________________________________
Layer (type)                 Output Shape              Param #   
=================================================================
embedding_1 (Embedding)      (None, 26, 128)           558720    
_________________________________________________________________
dropout_1 (Dropout)          (None, 26, 128)           0         
_________________________________________________________________
lstm_1 (LSTM)                (None, 128)               131584    
_________________________________________________________________
repeat_vector_1 (RepeatVecto (None, 1, 128)            0         
_________________________________________________________________
lstm_2 (LSTM)                (None, 1, 128)            131584    
_________________________________________________________________
time_distributed_1 (TimeDist (None, 1, 2)              258       
_________________________________________________________________
activation_1 (Activation)    (None, 1, 2)              0         
=================================================================
Total params: 822,146
Trainable params: 822,146
Non-trainable params: 0
_________________________________________________________________
file_data, iteration:27
loading the weights
acc: 86.60%


Testing Samples
--------------------------------------------------
--------------------------------------------------
440
--------------------------------------------------
…
